examples/checkpoints/basic_model.pth (torch, 621411 bytes, 27 tensors)

lstm.weight_ih_l0 f4 [256, 1]
0.13512774 0.14827959 0.012641516 0.1653628 -0.015231204 -0.0014157399 -0.010860578 0.11599263
0.15260585 -0.1278072 0.14811307 0.06251001 0.112477615 0.06360244 0.09700866 0.03159728
0.10337563 0.04293777 -0.0067537157 0.0809368 0.0020234757 0.03527481 -0.0078767855 0.115834914
-0.08344241 -0.05324433 0.0067911297 -0.03522992 -0.004178416 -0.0757495 0.0957597 -0.07688808
0.15424591 0.055452652 -0.037319724 0.11177815 0.07009313 0.13896619 0.039540652 0.012780491
0.0766559 0.011315423 0.08686232 0.15581466 0.10900044 -0.015418414 0.105437875 0.06589581
0.12034536 -0.03773829 -0.08311276 -0.074075 -0.08108439 0.15475254 0.074018374 0.09291093
0.082777776 0.030914828 0.14314255 -0.12613459 0.005729731 -0.044898923 0.077698864 0.0013046333
0.07285408 0.019891035 0.14611344 -0.023052385 -0.062026173 -0.105547294 0.16370802 0.0856006
0.16045773 -0.1430209 -0.083049044 -0.06226878 -0.061275598 0.09853829 0.083737835 0.15452828
-0.05710617 -0.05846614 0.12089359 -0.0007280816 0.1349004 0.02139051 0.1154332 -0.06065399
-0.04686916 0.04522965 0.06977591 0.008286305 0.062737755 0.13391674 -0.1063631 -0.03736979
0.17192672 -0.0067001353 -0.04149862 -0.08539714 -0.021328548 0.06703609 0.012335981 -0.038078472
0.04749572 -0.03902995 -0.073407695 -0.023371197 -0.07170233 -0.040201053 0.16007668 0.06830022
0.09496997 -0.077558406 -0.04137376 -0.06644396 0.03551903 -0.057947747 -0.013953089 -0.03230305
0.044688527 -0.017864836 0.03535314 -0.13264526 -0.08376581 -0.03201366 -0.0019453743 -0.053707846
0.15669239 0.01686722 0.14990644 0.081547596 -0.08676615 0.11653037 -0.080951765 -0.006635808
-0.1530341 -0.13092627 -0.0035067718 -0.073183686 0.026495887 -0.14610036 0.12958173 -0.13802202
-0.005823503 0.00056228443 0.11513992 0.14874363 0.16952446 -0.1466297 -0.008321081 -0.014675021
0.005230957 -0.08056137 0.15032627 -0.05712328 0.08063729 0.091114834 0.02746233 -0.033710357
0.16632682 -0.00733982 0.04498718 -0.07253115 0.097227715 -0.05929778 -0.03325173 0.15975794
-0.013941269 -0.112456225 -0.11398687 0.038429577 0.10296498 0.0057279295 -0.039850898 -0.084177494
-0.14444236 0.007455467 0.0580462 -0.12448816 0.06000588 0.11339417 0.063331544 -0.08662686
0.10409917 0.11161533 0.09109677 -0.04715512 -0.02735369 0.051073004 -0.058622096 -0.07897898
0.11966971 0.15357898 0.03147958 0.024723088 0.011891758 -0.03520027 0.08090286 0.07884627
-0.07019844 -0.083877034 0.14513482 0.08883941 0.014654704 -0.026943985 -0.037363056 -0.060461927
-0.03251096 0.06549006 0.13350254 0.108334824 -0.048966512 -0.023283402 0.024251306 0.15436105
0.033660445 -0.029926317 0.09519505 -0.0070960815 -0.09628952 0.1403522 -0.07447099 0.004155229
-0.066214226 0.119180664 0.098271385 0.08032979 -0.033971533 -0.083241716 -0.07484965 0.14749067
0.10434975 0.15137686 0.10049036 0.07749139 0.037181675 -0.055193417 -0.07255109 -0.07158627
0.109101325 -0.021916026 0.01588158 -0.0980009 -0.0064800866 -0.03388352 -0.04171745 0.08397143
0.007817166 0.111424446 0.0068909144 -0.12876664 -0.024799425 -0.019370902 0.002515982 -0.07328755
00000000: ed5e 0a3e 9bd6 173e 5c1e 4f3c de54 293e
00000010: 4d8c 79bc 5990 b9ba 91f0 31bc 8b8d ed3d
00000020: b544 1c3e e4df 02be f4aa 173e 4005 803d
00000030: aa5a e63d ff41 823d 7aac c63d 266c 013d
00000040: 9ab6 d33d 84df 2f3d 464e ddbb 31c2 a53d
00000050: 4a9c 043b 527c 103d a20d 01bc db3a ed3d
00000060: dbe3 aabd ba16 5abd 2088 de3b 404d 10bd
00000070: 18eb 88bb 8e22 9bbd a91d c43d 7f77 9dbd
00000080: a4f2 1d3e 5222 633d 91dc 18bd f1eb e43d
00000090: fd8c 8f3d 274d 0e3e 61f5 213d 4465 513c
000000a0: c5fd 9c3d 5364 393c dfe4 b13d e18d 1f3e
000000b0: 9f3b df3d 849d 7cbc d0ef d73d 62f4 863d
000000c0: a177 f63d 7793 1abd 0637 aabd a2b4 97bd
000000d0: 930f a6bd 7377 1e3e f296 973d 1648 be3d
000000e0: 6587 a93d 1841 fd3c f693 123e 6d29 01be
000000f0: 78c0 bb3b efe7 37bd 9520 9f3d 3b00 ab3a
00000100: 8534 953d 86f2 a23c c39e 153e 5bd8 bcbc
00000110: 280f 7ebd 2e29 d8bd 13a3 273e 5e4f af3d
00000120: 084f 243e 1274 12be 9e15 aabd 8c0d 7fbd
00000130: 1ffc 7abd 71ce c93d be7e ab3d a93c 1e3e
00000140: 29e8 69bd 317a 6fbd 0f97 f73d bbdc 3eba
00000150: 5523 0a3e 273b af3c 3e68 ec3d 5170 78bd
00000160: e0f9 3fbd ba42 393d ace6 8e3d 48c3 073c
00000170: a77c 803d 7821 093e e6d4 d9bd 1111 19bd
00000180: 8f0d 303e cf8c dbbb 75fa 29bd b2e4 aebd
00000190: 35b9 aebc 384a 893d db1c 4a3c 2cf8 1bbd
000001a0: df8a 423d dedd 1fbd c656 96bd f474 bfbc
000001b0: acd8 92bd dca9 24bd 24eb 233e fce0 8b3d
000001c0: 9e7f c23d f1d6 9ebd 8877 29bd c513 88bd
000001d0: 677c 113d 9e5a 6dbd 7f9b 64bc 3450 04bd
000001e0: 510b 373d 4759 92bc 74ce 103d 29d4 07be
000001f0: 698d abbd c120 03bd eefb feba c2fc 5bbd
00000200: f873 203e 202d 8a3c 1381 193e 6d02 a73d
00000210: 74b2 b1bd 7aa7 ee3d 0aca a5bd 3171 d9bb
00000220: f9b4 1cbe 8911 06be ded1 65bb 54e1 95bd
00000230: e70d d93c 559b 15be 13b1 043e a555 0dbe
00000240: 15d3 bebb 4566 133a 7ace eb3d 4050 183e
00000250: d297 2d3e 1926 16be 2555 08bc 806f 70bc
00000260: 7368 ab3b 5cfd a4bd 21ef 193e 1afa 69bd
00000270: 2a25 a53d 6a9a ba3d aef8 e03c df13 0abd
00000280: 9451 2a3e df82 f0bb 7a44 383d 368b 94bd
00000290: 531f c73d 3be2 72bd f732 08bd 9697 233e
000002a0: ec69 64bc 734f e6bd f371 e9bd 5568 1d3d
000002b0: 4edf d23d 5bb1 bb3b b23a 23bd 4065 acbd
000002c0: b3e8 13be fd4c f43b dac1 6d3d a6f3 febd
000002d0: bac8 753d 343b e83d f8b3 813d 6c69 b1bd
000002e0: f231 d53d 9496 e43d f190 ba3d ba25 41bd
000002f0: d814 e0bc ed31 513d b91d 70bd bbbf a1bd
00000300: 6515 f53d cf43 1d3e bbf0 003d 1388 ca3c
00000310: a6d5 423c 292e 10bd 66b0 a53d 277a a13d
00000320: 33c4 8fbd b9c7 abbd 399e 143e 70f1 b53d
00000330: 491a 703c a2b9 dcbc 010a 19bd eda6 77bd
00000340: 362a 05bd a71f 863d e4b4 083e a6de dd3d
00000350: 1c91 48bd d5bc bebc adaa c63c d310 1e3e
00000360: 89df 093d 0928 f5bc 9ff5 c23d 3f86 e8bb
00000370: 7133 c5bd 7db8 0f3e 3f84 98bd 9628 883b
00000380: 539b 87bd fe14 f43d 8242 c93d f283 a43d
00000390: bc25 0bbd a27a aabd c64a 99bd cb07 173e
000003a0: 52b5 d53d 8902 1b3e e4cd cd3d ceb3 9e3d
000003b0: d04b 183d 7e12 62bd aa95 94bd d39b 92bd
000003c0: 8470 df3d 3d89 b3bc 161a 823c b2b4 c8bd
000003d0: e856 d4bb 72c9 0abd ebdf 2abd 37f9 ab3d
000003e0: 9213 003c 8032 e43d 2ecd e13b 67db 03be
000003f0: 2a28 cbbc baaf 9ebc 2ce3 243b c817 96bd

lstm.weight_hh_l0 f4 [256, 64]
0.1084426 -0.05452854 0.090264075 0.08808532 0.13327348 -0.16627216 0.058595724 -0.02618957
0.017065262 0.17609172 -0.052271497 -0.03883182 -0.06456018 -0.13905558 0.08915561 -0.15607572
0.10021897 0.054728772 0.16238046 0.0028307112 -0.06294477 -0.00352087 0.03506104 -0.091578886
0.003209486 -0.027600057 0.022103518 -0.03017596 -0.05531085 -0.007844182 -0.17210907 0.13514167
0.1500067 -0.052998316 -0.018641843 -0.017628921 -0.081664585 -0.1476349 0.08102148 -0.038818326
-0.110674396 -0.04563189 -0.0782343 -0.008437573 0.03603459 0.0077897846 -0.0053316406 -0.09478323
-0.14437005 0.07134678 -0.08524623 0.09262335 -0.032683954 0.054662094 0.14964412 0.025153337
-0.072430685 0.061987005 0.15109478 0.02008762 0.11346495 0.15736917 -0.048532315 -0.005753789
-0.050794218 -0.016064886 0.116496414 0.08207249 -0.08069694 -0.044237114 -0.10000407 -0.1156809
-0.15244351 -0.04336242 0.07783168 0.0040184595 -0.10008064 -0.11543114 0.08206718 -0.112436816
-0.010287155 0.05264156 -0.03717893 0.0051538604 0.034356292 -0.04838927 -0.074493036 -0.10960374
-0.09564087 -0.068244636 0.13793932 -0.058013696 -0.06027226 0.044551786 0.047358442 0.0661492
0.13223769 0.06121892 -0.11464354 0.012589619 0.09242139 -0.025992483 -0.069393255 0.14553666
-0.05333346 -0.083236784 -0.12987703 0.019188358 0.071180366 0.03247091 0.031054521 -0.10551028
-0.1473767 -0.0039537204 0.11122505 0.063719176 -0.051819816 0.0095380945 -0.0810982 -0.07215575
0.037172865 0.12536345 0.11827406 -0.1251959 0.08567021 -0.08023081 0.034912903 0.094313525
0.044063795 0.12943596 -0.085091285 -0.026965374 0.083049506 -0.022777213 -0.043707054 -0.037600465
0.05187685 0.074450746 0.02628225 -0.09957168 -0.113314286 -0.007098715 0.05822672 -0.07963612
-0.031635586 0.06883668 0.039829414 0.027342146 0.0044214474 -0.13448441 -0.13482566 -0.05069386
-0.054802924 0.051679514 -0.01600518 -0.03849205 0.12933068 0.061626755 0.070882775 -0.05510282
-0.019536741 0.031837963 -0.09275645 -0.07354272 0.013373502 -0.06002423 -0.08288028 0.09902826
0.087698944 0.001595742 -0.05204568 -0.097871736 -0.026359241 0.04358591 0.07400649 -0.033079647
-0.08305408 0.057447277 -0.11009421 0.07091947 -0.035484467 0.027921513 -0.01086955 -0.0010851364
-0.01666475 0.118337266 0.015700249 0.07682086 0.1252793 -0.04651462 -0.10565486 0.08439811
0.12867893 -0.07688216 0.018734513 -0.09805652 -0.092645034 0.055981934 0.0106816 0.043478012
-0.082873665 0.11100331 0.0017531668 -0.09229423 -0.021679705 0.005656602 0.071010076 -0.115138225
0.057474803 -0.081659704 -0.07428589 -0.041772593 0.16635203 0.08092359 0.09103426 0.08285672
0.108168565 -0.005566761 -0.043755934 0.074005 -0.04211053 -0.062042132 -0.03801333 0.0316637
0.10353372 -0.06601514 -0.06946928 0.027141333 -0.049959883 -0.10142424 0.078887895 0.011049738
0.09979264 0.09971541 0.020948535 0.065293625 0.052631788 0.016007764 0.008209747 -0.018626152
0.009728925 0.101082325 -0.045070775 -0.056707293 -0.009037879 -0.028757019 0.037877727 0.073419005
0.12234531 0.10298621 -0.06874932 -0.07315408 -0.01922732 -0.005823638 -0.008709209 -0.13437708
00000000: 2717 de3d 5159 5fbd 5fdc b83d 1466 b43d
00000010: d878 083e 4043 2abe 1202 703d 828b d6bc
00000020: 73cc 8b3c 6351 343e a31a 56bd 1d0e 1fbd
00000030: 2138 84bd 9664 0ebe 3797 b63d 50d2 1fbe
00000040: 9a3f cd3d 472b 603d 1047 263e 7483 393b
00000050: 30e9 80bd 66be 66bb 2a9c 0f3d b68d bbbd
00000060: 3d56 523b 8419 e2bc 7012 b53c 9333 f7bc
00000070: a18d 62bd e284 00bc 5c3d 30be 9462 0a3e
00000080: 5b9b 193e c314 59bd c7b6 98bc 876a 90bc
00000090: c33f a7bd 9a2d 17be 97ee a53d f7ff 1ebd
000000a0: 42a9 e2bd 81e8 3abd 4e39 a0bd bf3d 0abc
000000b0: 0299 133d 7341 ff3b 0bb5 aebb b61d c2bd
000000c0: bed5 13be 431e 923d 9395 aebd 50b1 bd3d
000000d0: 9cdf 05bd 5ce5 5f3d 4f3c 193e 5f0e ce3c
000000e0: 8a56 94bd 16e6 7d3d 97b8 1a3e cb8e a43c
000000f0: 5060 e83d 6225 213e d2c9 46bd 488a bcbb
00000100: 990d 50bd 829a 83bc ac95 ee3d 9f15 a83d
00000110: 7044 a5bd fa31 35bd efce ccbd 1cea ecbd
00000120: 271a 1cbe cb9c 31bd 3766 9f3d 48ad 833b
00000130: 14f7 ccbd 2967 ecbd d612 a83d 4645 e6bd
00000140: 758b 28bc ad9e 573d ef48 18bd b7e1 a83b
00000150: 2fb9 0c3d d433 46bd ce8f 98bd ed77 e0bd
00000160: 5cdf c3bd d8c3 8bbd f73f 0d3e c59f 6dbd
00000170: 0ce0 76bd ef7b 363d edfa 413d 3b79 873d
00000180: 5169 073e b1c0 7a3d 3bca eabd b044 4e3c
00000190: 6d47 bd3d 30ee d4bc 0d1e 8ebd 9007 153e
000001a0: 3074 5abd 0c78 aabd 7cfe 04be e730 9d3c
000001b0: 03c7 913d 3800 053d 0d66 fe3c c615 d8bd
000001c0: ebe9 16be 368e 81bb f6c9 e33d 337f 823d
000001d0: 0441 54bd ab45 1c3c d016 a6bd 65c6 93bd
000001e0: 9342 183d 475f 003e ac39 f23d 5b33 00be
000001f0: dd73 af3d 0d50 a4bd d500 0f3d 7327 c13d
00000200: 3d7c 343d dc8a 043e 5744 aebd 7de6 dcbc
00000210: dc15 aa3d 4797 babc 2b06 33bd f202 1abd
00000220: d27c 543d a279 983d e04d d73c 3dec cbbd
00000230: 5211 e8bd 569c e8bb 247f 6e3d 4318 a3bd
00000240: 5194 01bd 3ffa 8c3d 2b24 233d a3fc df3c
00000250: cae1 903b 48b6 09be bd0f 0abe 5da4 4fbd
00000260: 0879 60bd e6ad 533d 4c1d 83bc d7a9 1dbd
00000270: 436f 043e 566c 7c3d fd2a 913d 7fb3 61bd
00000280: 840b a0bc 8668 023d 18f7 bdbd 919d 96bd
00000290: 881c 5b3c f8db 75bd 23bd a9bd 54cf ca3d
000002a0: 819b b33d 3728 d13a da2d 55bd fa70 c8bd
000002b0: 56ef d7bc 2487 323d b790 973d 867e 07bd
000002c0: 4218 aabd d64d 6b3d 1379 e1bd 3a3e 913d
000002d0: 2958 11bd a8bb e43c 3216 32bc 233b 8eba
000002e0: 8484 88bc cf5a f23d cf9d 803c 4154 9d3d
000002f0: 3849 003e 1d86 3ebd 9361 d8bd ebd8 ac3d
00000300: 69c4 033e 6574 9dbd 1f79 993c dbd1 c8bd
00000310: aebc bdbd 504d 653d e101 2f3c 0016 323d
00000320: abb9 a9bd b455 e33d 84ca e53a c204 bdbd
00000330: a399 b1bc 045b b93b bb6d 913d 97cd ebbd
00000340: b36a 6b3d 343d a7bd 3323 98bd bd19 2bbd
00000350: 3058 2a3e 44bb a53d 2c70 ba3d c9b0 a93d
00000360: 7b87 dd3d 6069 b6bb 6c39 33bd ef8f 973d
00000370: 177c 2cbd e41f 7ebd deb3 1bbd ccb1 013d
00000380: 7d09 d43d f232 87bd e945 8ebd 8057 de3c
00000390: bca2 4cbd 83b7 cfbd fa8f a13d f609 353c
000003a0: 1560 cc3d 9837 cc3d 439c ab3c aab8 853d
000003b0: 6e94 573d b722 833c 2d82 063c df95 98bc
000003c0: 1266 1f3c 4004 cf3d 229c 38bd e845 68bd
000003d0: 9d13 14bc d793 ebbc ad25 1b3d b45c 963d
000003e0: 2e90 fa3d 6fea d23d 72cc 8cbd ced1 95bd
000003f0: 9d82 9dbc 37d4 bebb 12b1 0ebc 259a 09be

lstm.bias_ih_l0 f4 [256]
0.045666542 -0.04968662 -0.049431432 -0.025919134 0.07397143 -0.046358995 0.12589687 -0.07094155
0.09610813 0.1360968 -0.049280077 -0.06213226 -0.06825133 -0.03823445 -0.07177093 -0.10229311
-0.08637473 -0.040027805 0.13826606 -0.0023950592 0.07543637 -0.019504337 0.02883701 0.055625703
0.0002801584 -0.00071498426 0.016925694 0.1232493 -0.09375249 0.13564092 -0.036728643 0.087142676
0.14268349 0.0027247514 -0.0052317884 0.089194335 -0.0002262177 0.04257968 0.1200322 0.008106373
-0.038583238 0.10487375 0.13733804 0.12751372 -0.114020616 0.087468155 0.0696089 -0.06799877
0.12757179 -0.061333522 0.07005886 -0.009216467 0.044904422 -0.04609905 -0.014473347 -0.06162071
0.08228247 -0.03650212 0.01926808 0.03694838 -0.014397242 -0.029190993 0.033613842 0.02039377
-0.030267784 -0.02464883 -0.008984086 -0.051296763 0.012588922 -0.0010221663 -0.055761695 -0.09381291
-0.026226956 -0.017581893 0.106898956 0.0057384884 -0.06894509 -0.08027521 0.027238205 0.12804917
-0.13437618 0.099388085 0.14145431 0.047362387 0.119918644 0.05678076 -0.099397264 -0.05055713
-0.050130565 -0.062522 0.0036772725 0.030821864 -0.008700414 0.08110997 -0.08395426 0.10303984
-0.0046543116 0.098817684 0.1048067 -0.09899858 -0.10322665 0.09541896 0.09680069 0.016634291
0.032226823 0.025984686 -0.014062696 0.073570654 0.046108358 -0.115865365 -0.025440963 -0.06163494
0.09664108 -0.11930939 -0.10415447 -0.13096668 -0.042732347 -0.06529255 -0.014554739 -0.063972116
0.09517242 0.16788878 0.056623302 -0.060358364 0.042099472 -0.099374644 -0.05626515 -0.01673199
-0.108978346 0.12602833 0.07338982 0.06533164 0.074077755 0.09730631 -0.048963275 0.03876078
-0.03677983 -0.003799472 -0.11293955 0.072039604 -0.09006098 -0.061233852 0.09686296 -0.079290174
-0.0043613445 -0.120706886 -0.06319342 0.11906441 0.07295984 0.0017163369 -0.06770261 0.10174886
0.095939875 0.04292985 -0.086906515 0.015124409 0.031138305 0.04030679 0.09717659 0.11993144
0.0702416 -0.08613096 -0.018283548 0.03443611 -0.038207274 0.037970513 0.083918035 -0.0669098
-0.04712864 -0.09681642 0.015732635 0.07624081 0.10742649 0.013815204 0.093103394 -0.12900652
-0.011343383 -0.029746857 -0.06688529 0.10002984 0.057573274 -0.098119855 -0.106718846 -0.062242445
0.050227735 0.04730616 0.067863524 0.08780064 -0.08125585 0.01821339 -0.055949155 -0.06302508
0.039875083 -0.0025700128 -0.08350678 0.018262263 0.07032274 0.1538395 -0.020725556 0.0913874
0.031390037 -0.079640165 0.113312095 -0.008665687 -0.032017175 -0.005678569 0.119225614 -0.03155232
-0.05469918 0.010112676 -0.053479236 0.06737806 0.16547552 0.0656446 -0.020960411 -0.02828627
-0.1449605 -0.08394013 -0.028618839 0.07420942 0.10561637 0.0022600575 -0.02152669 0.083186
0.018786063 -0.08718333 0.06222869 -0.051762626 -0.07082022 0.010609601 -0.082170986 -0.06535851
-0.06336552 -0.0036816604 0.06587371 -0.043452878 -0.11493202 -0.037217047 0.1254448 -0.015793743
-0.046536434 -0.040963884 0.1157284 0.00016058313 -0.01194491 0.15474685 0.02315425 0.025473753
0.13829482 0.05008604 -0.009983278 0.0889208 0.028168779 -0.07954786 0.085597575 -0.041001115
00000000: d70c 3b3d 3284 4bbd 9d78 4abd 5d54 d4bc
00000010: 557e 973d eee2 3dbd 1ceb 003e ce49 91bd
00000020: 57d4 c43d f65c 0b3e e8d9 49bd 667e 7ebd
00000030: 5ac7 8bbd ba9b 1cbd a3fc 92bd 0d7f d1bd
00000040: 3ce5 b0bd 32f4 23bd 9e95 0d3e 6df6 1cbb
00000050: 627e 9a3d 8fc7 9fbc 983b ec3c c7d7 633d
00000060: 39e2 9239 c86d 3bba c1a7 8a3c 216a fc3d
00000070: 4e01 c0bd 74e5 0a3e c670 16bd dc77 b23d
00000080: 9f1b 123e be91 323b 6c6f abbb 85ab b63d
00000090: da34 6db9 0868 2e3d 71d3 f53d 98d0 043c
000000a0: 7509 1ebd 0cc8 d63d 58a2 0c3e f592 023e
000000b0: a483 e9bd 8122 b33d 1c8f 8e3d f042 8bbd
000000c0: 2ea2 023e dc38 7bbd 057b 8f3d aa00 17bc
000000d0: b3ed 373d 5cd2 3cbd 9e21 6dbc ff65 7cbd
000000e0: b683 a83d 3f83 15bd 18d8 9d3c 2f57 173d
000000f0: 69e2 6bbc f321 efbc abae 093d d610 a73c
00000100: 25f4 f7bc 58ec c9bc fd31 13bc 8e1c 52bd
00000110: c441 4e3c 36fa 85ba 6066 64bd fc20 c0bd
00000120: ead9 d6bc e707 90bc d7ed da3d ee09 bc3b
00000130: 1533 8dbd 5467 a4bd a822 df3c 521f 033e
00000140: e999 09be fb8b cb3d 66d9 103e 10ff 413d
00000150: e897 f53d f192 683d cb90 cbbd fe14 4fbd
00000160: b555 4dbd 890b 80bd 65fe 703b 227e fc3c
00000170: 2e8c 0ebc fc1c a63d 36f0 abbd 8d06 d33d
00000180: 3283 98bb ed60 ca3d e5a4 d63d c4bf cabd
00000190: 7e68 d3bd 046b c33d 713f c63d a344 883c
000001a0: 4600 043d d6dd d43c 3967 66bc 36ac 963d
000001b0: 1edc 3c3d d24a edbd 9169 d0bc eb74 7cbd
000001c0: c2eb c53d 7b58 f4bd f04e d5bd 211c 06be
000001d0: 1d08 2fbd 1ab8 85bd 0077 6ebc d003 83bd
000001e0: c2e9 c23d 09eb 2b3e d6ed 673d 553a 77bd
000001f0: 7f70 2c3d ef84 cbbd 4976 66bd 8711 89bc
00000200: 0a30 dfbd 920d 013e 674d 963d 98cc 853d
00000210: 14b6 973d 8848 c73d b78d 48bd a0c3 1e3d
00000220: 72a6 16bd 9000 79bb da4c e7bd 8089 933d
00000230: e471 b8bd 59d0 7abd 1660 c63d e362 a2bd
00000240: 9ce9 8ebb 2c35 f7bd 8d6b 81bd 0bd8 f33d
00000250: f86b 953d b6f6 e03a aaa7 8abd b561 d03d
00000260: 207c c43d 36d7 2f3d 0bfc b1bd 5fcc 773c
00000270: c215 ff3c bc18 253d 8504 c73d 9d9e f53d
00000280: d4da 8f3d 6e65 b0bd 61c7 95bc e10c 0d3d
00000290: 3b7f 1cbd f886 1b3d 38dd ab3d 0108 89bd
000002a0: f609 41bd b047 c6bd bae1 803c 2424 9c3d
000002b0: 6b02 dc3d 2a59 623c feac be3d 491a 04be
000002c0: 99d9 39bc aeaf f3bc 28fb 88bd 72dc cc3d
000002d0: f4d1 6b3d 10f3 c8bd 698f dabd eff1 7ebd
000002e0: 99bb 4d3d 1bc4 413d 08fc 8a3d d2d0 b33d
000002f0: 7869 a6bd 3f34 953c f12a 65bd 4b13 81bd
00000300: 0e54 233d a96d 28bb 9a05 abbd be9a 953c
00000310: 5e05 903d 1a88 1d3e a4c8 a9bc 5129 bb3d
00000320: d792 003d 621a a3bd 2c10 e83d 87fa 0dbc
00000330: 7124 03bd 4a13 babb 8f2c f43d 013d 01bd
00000340: 3f0c 60bd a3af 253c 0b0d 5bbd 82fd 893d
00000350: 6a72 293e ad70 863d 2bb5 abbc 9cb8 e7bc
00000360: 8670 14be cee8 abbd 0e72 eabc 1cfb 973d
00000370: 654d d83d 791d 143b be58 b0bc 6c5d aa3d
00000380: 3be5 993c 2c8d b2bd 83e3 7e3d 0c05 54bd
00000390: 310a 91bd e4d3 2d3c 4349 a8bd afda 85bd
000003a0: c8c5 81bd 0348 71bb cce8 863d a5fb 31bd
000003b0: 7b61 ebbd e770 18bd 9a74 003e e161 81bc
000003c0: fd9c 3ebd bfc9 27bd 0303 ed3d 3562 2839
000003d0: 95b4 43bc f575 1e3e fbad bd3c 55ae d03c
000003e0: 289d 0d3e 0527 4d3d e790 23bc 1c1c b63d
000003f0: 36c2 e63c fde9 a2bd c84d af3d c9f0 27bd

lstm.bias_hh_l0 f4 [256]
-0.06547595 0.118113935 -0.07494099 -0.034177095 -0.009676314 0.04136678 -0.002101711 0.099411555
0.1545842 -0.0994704 -0.10999137 -0.100894004 0.10057371 -0.00097583514 -0.056884855 -0.061588485
-0.005795616 0.039192285 0.10169172 0.119829394 0.17200984 -0.06361152 0.0027454386 -0.08339866
-0.06666287 0.01826587 0.07649392 -0.050817277 -0.0809685 -0.020105619 0.042708494 0.0014875742
0.13954191 -0.1141381 0.03738629 0.09721718 0.09587914 -0.100592874 -0.08299982 0.034701813
0.006036857 0.08240236 0.12698442 -0.00058937876 -0.032809425 0.073305555 -0.07295738 -0.045262378
0.061312724 -0.015236926 0.079500444 -0.04468816 0.018776497 0.06625602 -0.0009924326 -0.033858918
0.092107505 0.13245632 -0.008567919 -0.091375105 -0.05247403 0.09488904 0.07825536 -0.030243818
0.1069795 -0.00543463 0.011032776 -0.039640304 0.0131496405 0.011686848 0.04647519 -0.11142512
0.04781301 -0.08811107 -0.10922667 -0.10348866 -0.021919379 0.038409725 0.018977664 0.051186547
-0.07541989 -0.0797906 0.0027536089 -0.07474194 0.041968174 0.045900956 0.02732464 -0.114238985
0.0978371 0.11969633 -0.048385788 -0.102020666 0.0052764737 0.041121796 -0.04371076 -0.059529945
0.055612992 -0.077485934 -0.07407876 0.04311003 0.030697001 0.053094473 0.10735484 0.028799895
0.048846714 0.096794955 -0.054145634 0.09106696 0.089608565 -0.04301664 0.10674278 -0.0447031
-0.016668051 0.095122136 0.06125699 -0.029787898 -0.098538555 0.102406934 0.04105277 -0.067461476
0.010163813 0.14852268 0.061049547 -0.069332555 -0.010238635 -0.036222856 0.0887626 0.06813682
-0.010616967 -0.005839408 -0.09956739 -0.020239403 0.07660918 -0.14558856 0.014518771 0.12770881
0.059057288 0.07951224 -0.044295505 -0.013243825 -0.106757715 -0.06586248 0.01683728 0.036740337
0.05327346 -0.07640689 0.04529408 -0.06337342 -0.08643805 -0.05151505 -0.09039416 0.03012075
-0.0020341128 0.09810279 0.058952097 0.03518651 0.018474236 0.042102247 -0.13350867 -0.05039934
-0.095125854 -0.071669936 0.013520521 0.12810458 0.090034194 -0.050312757 0.031378593 0.08665304
0.017022306 -0.10395923 0.011642164 0.052324995 0.014833097 0.121435516 0.11602009 -0.07813262
0.08640975 -0.11803561 -0.080285884 0.03499492 -0.016688071 0.11399779 0.08116776 -0.030312652
0.12733196 -0.10170562 0.02645086 0.031064782 0.09646281 0.12997629 0.06071082 -0.058093056
0.13917562 0.094487734 0.015305872 0.10981648 0.030128738 0.030864768 0.051674213 0.0072074123
0.024122173 0.030455982 0.0043609957 -0.06500128 -0.09456987 0.056543924 -0.04211513 0.024888592
0.08888223 0.09504869 0.09780857 0.08519423 0.14487559 -0.06337729 0.12541677 -0.0965407
-0.10345116 -0.036607005 0.12781899 0.074888304 0.024382802 0.0834907 -0.12891686 -0.12156138
0.08394558 -0.036086984 0.051263694 -0.086431846 0.13654998 -0.099512674 0.06470121 0.09798407
-0.061496645 0.11762297 0.08940288 -0.04873066 -0.051936906 0.10099011 -0.02161243 0.021291638
0.1020176 0.06414585 -0.059438873 0.07432088 0.043486115 0.07270339 -0.047818728 0.06280801
-0.0004199179 0.15156014 0.07612999 0.07932703 -0.02842957 0.089383684 0.10174919 0.039130747
00000000: 4118 86bd b8e5 f13d a97a 99bd 48fd 0bbd
00000010: 6789 1ebc 3670 293d dcbc 09bb 4998 cb3d
00000020: 524b 1e3e 23b7 cbbd 2843 e1bd 84a1 cebd
00000030: 97f9 cd3d 30cf 7fba 1800 69bd 3544 7cbd
00000040: 27e9 bdbb 1788 203d c043 d03d 1d69 f53d
00000050: 5923 303e c246 82bd d1ec 333b ebcc aabd
00000060: 8b86 88bd 4ea2 953c d8a8 9c3d c725 50bd
00000070: d0d2 a5bd 8ab4 a4bc 1aef 2e3d b5fa c23a
00000080: 13e4 0e3e 3cc1 e9bd 5e22 193d cd19 c73d
00000090: 485c c43d a303 cebd cffb a9bd 7d23 0e3d
000000a0: d4d0 c53b 92c2 a83d 3408 023e 8a80 1aba
000000b0: 2d63 06bd 3921 963d ae6a 95bd 0b65 39bd
000000c0: 0d23 7b3d 4da4 79bc 21d1 a23d ef0a 37bd
000000d0: 2bd1 993c 3cb1 873d 8314 82ba a6af 0abd
000000e0: dca2 bc3d a1a2 073e 7560 0cbc df22 bbbd
000000f0: 02ef 56bd 2f55 c23d 5944 a03d e2c1 f7bc
00000100: 1118 db3d fb14 b2bb d1c2 343c df5d 22bd
00000110: 9771 573c 317a 3f3c c55c 3e3d da32 e4bd
00000120: 93d7 433d 9473 b4bd 3bb2 dfbd ddf1 d3bd
00000130: 4590 b3bc 8453 1d3d 0c77 9b3c fca8 513d
00000140: be75 9abd 4169 a3bd e475 343b 4d12 99bd
00000150: d2e6 2b3d a402 3c3d ecd7 df3c 21f6 e9bd
00000160: d15e c83d 5923 f53d 2d30 46bd 36f0 d0bd
00000170: 45e6 ac3b 546f 283d 0e0a 33bd acd5 73bd
00000180: 73ca 633d f2b0 9ebd 9bb6 97bd 2594 303d
00000190: 4778 fb3c 9779 593d dbdc db3d c2ed eb3c
000001a0: 7e13 483d 6f3c c63d d0c7 5dbd 5081 ba3d
000001b0: b284 b73d 3732 30bd f59b da3d 991a 37bd
000001c0: 708b 88bc 65cf c23d 9ce8 7a3d c005 f4bc
000001d0: 95ce c9bd baba d13d f326 283d 3e29 8abd
000001e0: 1f86 263c 5416 183e 170f 7a3d 3afe 8dbd
000001f0: f3bf 27bc 6b5e 14bd 2bc9 b53d 518b 8b3d
00000200: caf2 2dbc 8158 bfbb fde9 cbbd 1bcd a5bc
00000210: 46e5 9c3d 2b15 15be 24e0 6d3c 19c6 023e
00000220: 0ee6 713d 50d7 a23d 346f 35bd a1fc 58bc
00000230: caa3 dabd e8e2 86bd 56ee 893c 097d 163d
00000240: 4635 5a3d 377b 9cbd 4986 393d ecc9 81bd
00000250: 6f06 b1bd 7201 53bd 9320 b9bd cbbf f63c
00000260: c04e 05bb 1eea c83d c177 713d bb1f 103d
00000270: 4857 973c 6873 2c3d 7fb6 08be 8a6f 4ebd
00000280: 58d1 c2bd b0c7 92bd 2d85 5d3c d92d 033e
00000290: d963 b83d c014 4ebd d786 003d 2677 b13d
000002a0: 5d72 8b3c 94e8 d4bd c6be 3e3c bc52 563d
000002b0: 8506 733c 2fb3 f83d f19b ed3d ff03 a0bd
000002c0: 98f7 b03d a7bc f1bd ed6c a4bd d556 0f3d
000002d0: 6cb5 88bc ac77 e93d 483b a63d 3d52 f8bc
000002e0: 4f63 023e 094b d0bd 79af d83c 927b fe3c
000002f0: 4b8e c53d 8118 053e e9ab 783d fcf2 6dbd
00000300: 0e84 0e3e c982 c13d 7bc5 7a3c 76e7 e03d
00000310: 8bd0 f63c 1cd8 fc3c 57a8 533d 282c ec3b
00000320: dd9b c53c d37e f93c afe6 8e3b 641f 85bd
00000330: d9ad c1bd 9a9a 673d ea80 2cbd 29e3 cb3c
00000340: e307 b63d e3a8 c23d dc4f c83d 507a ae3d
00000350: 445a 143e f4cb 81bd 416d 003e 21b7 c5bd
00000360: 34de d3bd 3af1 15bd fbe2 023e 0a5f 993d
00000370: 71be c73c 2cfd aa3d c802 04be 2cf5 f8bd
00000380: a9eb ab3d f2cf 13bd e1f9 513d 2e03 b1bd
00000390: c2d3 0b3e 4dcd cbbd 1182 843d dfab c83d
000003a0: e8e3 7bbd 50e4 f03d db18 b73d cd99 47bd
000003b0: cbbb 54bd e7d3 ce3d 8d0c b1bc cd6b ae3c
000003c0: 9aee d03d e65e 833d 2d76 73bd 8c35 983d
000003d0: 7f1e 323d 84e5 943d 92dd 43bd 7ca1 803d
000003e0: 6d28 dcb9 9532 1b3e 0aea 9b3d 3676 a23d
000003f0: 21e5 e8bc cb0e b73d e161 d03d 9047 203d

lstm.weight_ih_l1 f4 [256, 64]
-0.0008734433 -0.09904544 -0.077016994 0.04944139 -0.091173194 -0.07551761 0.080061555 -0.07759433
-0.08973392 0.023551747 0.0690153 -0.12121463 0.03067031 -0.079394154 0.039298292 0.086351305
0.027929058 0.13812283 -0.038233936 -0.0669427 0.011772767 0.054354757 -0.03972447 -0.096392415
-0.052730992 0.03714633 0.038061325 -0.06776229 0.09038091 -0.10924688 -0.020266756 0.020928629
-0.12433793 0.12937509 -0.07189838 0.058486134 -0.0152446125 -0.053061444 0.102582574 -0.031414695
0.036453363 0.13370396 -0.12716858 0.08539702 -0.07776018 -0.11745677 0.05450903 -0.022437967
-0.08707242 -0.045745768 0.09561528 0.041328236 -0.021198593 0.042273916 0.009927237 -0.077820234
0.007815845 0.0661026 -0.02788898 -0.027212804 0.108112484 -0.05301083 0.13129658 0.12557061
0.1273428 0.045002785 0.060382966 0.05130186 -0.11561556 0.012114055 -0.08607148 -0.0059545645
-0.12829413 -0.052246626 -0.09315364 -0.10847813 0.034965858 0.10596405 -0.024486143 -0.10400025
-0.036021866 -0.05526479 -0.09959307 0.12848072 0.13277762 0.07357175 -0.07736629 -0.08122261
0.12653382 -0.07676753 -0.08752089 -0.10032604 0.06666339 -0.0007933871 -0.06332 0.10521219
-0.033980757 -0.00054617063 0.07623015 0.0622305 0.12446549 -0.032399494 0.070189826 0.021337962
0.009478985 -0.08668389 0.06018503 0.043391097 0.043297175 -0.002744626 0.056912467 -0.13358228
0.073747344 0.08925749 0.06266768 -0.013895436 -0.08527345 -0.007280148 -0.08864578 -0.07501043
0.11440834 0.04725055 0.14190966 -0.0650099 -0.0556292 -0.09039277 0.03437352 0.03231896
0.0994516 0.10734553 0.08005338 -0.10975994 -0.0045994846 0.14483078 0.08810058 0.045592397
-0.104104705 -0.12525941 0.123558946 -0.05171482 0.048787057 -0.034926377 -0.037706386 0.040874608
0.10839719 -0.024778333 0.073614836 0.050327286 0.009061035 0.022060055 0.04364068 0.1081689
-0.052341007 0.08740845 -0.007669489 0.037328385 -0.09236802 0.084840834 0.11534625 0.01837902
0.027469628 0.03588446 -0.10442366 -0.11416704 0.09665464 -0.11127915 -0.034637634 -0.06604796
-0.11153011 -0.052434698 -0.019729977 -0.100730434 -0.09517697 -0.10575901 -0.010412125 -0.03391246
0.06915496 -0.113824755 -0.101373464 -0.05289484 0.1315759 0.13193114 -0.01937008 -0.03446261
0.019794079 0.045960635 0.010051325 -0.06690549 -0.01740608 0.020904504 0.0808169 -0.077093355
-0.04296686 0.04928054 0.06163801 0.04359918 -0.031269908 -0.0024641673 -0.022993311 0.09564414
0.1118658 -0.08903651 0.06754438 0.13764706 0.04071201 -0.08193026 0.064945154 0.026416916
-0.04526472 0.06564235 0.06432155 0.037610985 -0.1432236 0.072753236 -0.06277649 -0.12407018
-0.07486459 0.06824373 0.078113124 0.032373376 0.059183888 -0.13313353 -0.081820756 -0.06579052
-0.15087532 -0.06470202 -0.11072422 -0.107943915 -0.0038572457 -0.039325427 -0.0037957178 -0.04665891
0.022163033 -0.098281406 -0.091694355 -0.12848666 0.06882189 -0.0061692083 -0.11344715 -0.03547414
0.03578143 -0.070481926 0.107978195 0.08523261 0.010125367 -0.0499888 0.051504742 0.049781393
-0.0051764403 -0.035205 -0.124959074 0.028337136 0.043521844 0.06349867 0.07917458 0.12373952
00000000: caf7 64ba 56d8 cabd 16bb 9dbd 0e83 4a3d
00000010: 03b9 babd faa8 9abd 50f7 a33d c7e9 9ebd
00000020: 6bc6 b7bd 98ef c03c e557 8d3d 603f f8bd
00000030: 4d40 fb3c 6799 a2bd 3ff7 203d f4d8 b03d
00000040: 7bcb e43c 1270 0d3e 309b 1cbd 4119 89bd
00000050: 90e2 403c 18a3 5e3d 20b6 22bd 6369 c5bd
00000060: 74fc 57bd c026 183d 31e6 1b3d f5c6 8abd
00000070: a019 b93d d4bc dfbd 7806 a6bc 8472 ab3c
00000080: e2a4 febd e77a 043e 753f 93bd 288f 6f3d
00000090: 8ac4 79bc f556 59bd d016 d23d b2ac 00bd
000000a0: 1f50 153d b1e9 083e 7b38 02be a2e4 ae3d
000000b0: bb40 9fbd 2d8d f0bd dc44 5f3d d4cf b7bc
000000c0: 0653 b2bd ea5f 3bbd f2d1 c33d cc47 293d
000000d0: aca8 adbc 6a27 2d3d daa5 223c 3760 9fbd
000000e0: 080e 003c cd60 873d 6e77 e4bc 63ed debc
000000f0: 146a dd3d e221 59bd 9c72 063e 9595 003e
00000100: 2766 023e d754 383d 2154 773d e621 523d
00000110: dac7 ecbd 087a 463c 3e46 b0bd 821e c3bb
00000120: 895f 03be 8f00 56bd 56c7 bebd c829 debd
00000130: 5c38 0f3d ae03 d93d 2a97 c8bc 15fe d4bd
00000140: aa8b 13bd 555d 62bd 74f7 cbbd 7390 033e
00000150: dbf6 073e c9ac 963d 3872 9ebd 0a58 a6bd
00000160: 1592 013e 4b38 9dbd 273e b3bd bd77 cdbd
00000170: d186 883d 4ffb 4fba ebad 81bd 7d79 d73d
00000180: 682f 0bbd e42c 0fba 8e1e 9c3d 69e5 7e3d
00000190: c3e7 fe3d 55b5 04bd afbf 8f3d f3cc ae3c
000001a0: bf4d 1b3c 5387 b1bd 9484 763d ddba 313d
000001b0: 6158 313d 2fdf 33bb 0c1d 693d cbc9 08be
000001c0: d908 973d a2cc b63d ea57 803d afa9 63bc
000001d0: d9a3 aebd 4f8e eebb eb8b b5bd 119f 99bd
000001e0: eb4e ea3d cb89 413d c450 113e e923 85bd
000001f0: 72db 63bd d81f b9bd 40cb 0c3d e360 043d
00000200: 48ad cb3d f9d7 db3d 07f3 a33d d2c9 e0bd
00000210: 46b7 96bb 854e 143e 146e b43d 18bf 3a3d
00000220: d934 d5bd 0144 00be 790c fd3d ebd2 53bd
00000230: f0d4 473d f60e 0fbd 0372 1abd 226c 273d
00000240: 59ff dd3d eefb cabc 60c3 963d fc23 4e3d
00000250: bc74 143c 4ab7 b43c 92c0 323d a887 dd3d
00000260: 8663 56bd 3403 b33d 5650 fbbb a6e5 183d
00000270: 722b bdbd 08c1 ad3d a83a ec3d 998f 963c
00000280: fc07 e13c 95fb 123d 12dc d5bd 69d0 e9bd
00000290: def2 c53d 53e6 e3bd 31e0 0dbd 2744 87bd
000002a0: e669 e4bd c4c5 56bd c3a0 a1bc c24b cebd
000002b0: 25ec c2bd 2e98 d8bd 9e97 2abc cbe7 0abd
000002c0: 1ea1 8d3d f41c e9bd e49c cfbd 42a8 58bd
000002d0: d5bb 063e f518 073e 01ae 9ebc aa28 0dbd
000002e0: 3127 a23c 3841 3c3d 50ae 243c bf05 89bd
000002f0: 3297 8ebc ec3f ab3c 5583 a53d 1fe3 9dbd
00000300: 05fe 2fbd 64da 493d 2378 7c3d 0e95 323d
00000310: e014 00bd de7d 21bb 785c bcbc 13e1 c33d
00000320: e619 e53d c658 b6bd b554 8a3d 5af3 0c3e
00000330: a3c1 263d 0dcb a7bd f701 853d 4a68 d83c
00000340: 8067 39bd 7f6f 863d 04bb 833d fa0d 1a3d
00000350: 35a9 12be a6ff 943d f690 80bd 8218 febd
00000360: 9b52 99bd 5ec3 8b3d c6f9 9f3d f299 043d
00000370: ce6a 723d 2854 08be a491 a7bd 2ebd 86bd
00000380: 0f7f 1abe 7e82 84bd 61c3 e2bd b311 ddbd
00000390: d8c9 7cbb b313 21bd 94c1 78bb 6a1d 3fbd
000003a0: 408f b53c c347 c9bd 40ca bbbd 0292 03be
000003b0: 7ef2 8c3d 1227 cabb fb56 e8bd 554d 11bd
000003c0: 8c8f 123d d458 90bd ac23 dd3d 6f8e ae3d
000003d0: dee4 253c 0ec1 4cbd a3f6 523d 93e7 4b3d
000003e0: 219f a9bb 1e33 10bd 8bea ffbd 4823 e83c
000003f0: f643 323d 970b 823d 4826 a23d 256b fd3d

lstm.weight_hh_l1 f4 [256, 64]
0.009372575 0.111426935 -0.017986288 -0.0046198694 -0.10763385 0.015015905 -0.10822641 0.07922283
-0.12128274 -0.019428248 0.033936843 -0.025852961 0.009435866 0.0016541826 -0.035891633 -0.02881895
0.12058736 0.009283312 0.020453043 0.023888746 0.027693503 0.031587813 0.01226201 -0.020811863
-0.023350677 -0.076627634 -0.024396459 -0.11156483 0.09790177 0.07224741 0.0106043555 -0.11096555
-0.0035785038 0.0030282154 0.019700134 0.10742361 0.07862675 0.025334535 0.09642462 0.008411276
0.09746872 -0.005694682 0.009798884 0.047820274 -0.009496465 0.13459907 0.08502134 -0.06237752
-0.08015637 0.09638477 0.032641973 -0.06616627 -0.1361398 0.006274819 0.035942413 0.09591769
0.037838407 -0.0053430055 0.12594846 0.030121408 0.02657554 -0.034044266 0.12808363 0.037320506
-0.023973966 0.035591573 -0.077035904 -0.1311908 0.13506225 0.047753792 0.024928262 -0.07942306
0.13846518 -0.018787961 0.038861834 -0.06721151 -0.016540738 0.033335626 -0.062646374 -0.0014005
-0.09402851 -0.047073007 -0.11533919 0.11339242 0.033445507 0.029502112 0.06654938 0.12511249
0.09796535 0.066546574 0.0131052295 0.056652725 0.045549292 0.062599055 -0.09119172 -0.10714513
-0.11215613 0.092922196 0.11814242 0.100424424 0.032141957 0.0152473 -0.039187588 0.10995565
0.0756752 0.012882964 -0.110240966 0.097265 -0.08529224 -0.053416666 0.1083859 -0.0641971
0.06401586 0.07250395 -0.05251811 -0.114049084 -0.025000188 -0.10095622 -0.108588375 0.13668053
-0.03835894 -0.028619397 0.065352194 -0.020389436 -0.014467548 -0.08005166 -0.028585542 -0.087228924
0.07249718 -0.11284495 0.04089632 -0.12470565 0.09770542 0.06584299 0.026441853 0.004217737
0.053429022 0.11555449 -0.09560879 0.06519004 0.0018859038 -0.046941128 0.106725134 0.03004104
-0.11795082 -0.045704696 0.056678917 -0.08136654 -0.08535095 -0.111050546 0.053666707 -0.03567126
-0.087547034 0.070949174 0.071818404 0.08312491 -0.012114614 -0.08784252 0.017148668 0.0005812733
0.092528105 0.052954372 -0.06728968 0.06950021 0.029698761 -0.047335524 -0.02317379 -0.041442856
0.10904532 0.05763528 -0.025170157 0.12511015 0.061332412 0.09478607 -0.019883486 -0.010429578
-0.13422562 -0.07903352 0.06794846 -0.033517387 0.053512376 -0.08450768 0.09182847 0.12025676
-0.083684765 0.11727743 0.104194164 -0.03823371 0.05725359 -0.104175076 -0.008854719 0.008917767
0.12670097 0.117052734 -0.096449085 0.013426954 -0.09617141 0.02930162 -0.1003287 0.020556571
0.036131613 0.052562416 0.045574244 0.10405295 0.013921284 0.057289623 0.0391983 -0.07767118
-0.09175809 0.01594757 -0.017373975 0.01159764 -0.046803903 0.020942971 -0.09835955 -0.025134457
-0.023914315 0.13543394 0.04657303 0.005610267 -0.052980263 -0.08506747 -0.11183349 -0.05430589
-0.12511991 0.07784987 0.11117873 -0.044245105 -0.03521943 0.08497771 -0.06706341 0.053701002
-0.08539675 0.10439314 -0.038443606 0.03418128 -0.11003379 0.017764254 -0.035005316 -0.082131356
-0.10709132 -0.06943117 0.089512825 -0.04455611 -0.010903347 0.11686637 0.06725941 0.10682396
0.10726461 -0.004351528 0.010647833 0.11585304 -0.074055746 -0.016387383 -0.006369762 0.01901949
00000000: 6e8f 193c ce33 e43d fb57 93bc 4662 97bb
00000010: 236f dcbd 4505 763c cfa5 ddbd 943f a23d
00000020: 1663 f8bd fd27 9fbc 5c01 0b3d 97c9 d3bc
00000030: e498 1a3c 28d1 d83a 1b03 13bd b815 ecbc
00000040: 81f6 f63d 0819 183c 248d a73c 55b2 c33c
00000050: 7cdd e23c 3962 013d 99e6 483c a47d aabc
00000060: eb49 bfbc f3ee 9cbd 15db c7bc 1a7c e4bd
00000070: b980 c83d 73f6 933d e4bd 2d3c e841 e3bd
00000080: 5585 6abb 0675 463b 2d62 a13c e900 dc3d
00000090: 1007 a13d 5f8a cf3c 457a c53d 73cf 093c
000000a0: ae9d c73d 749a babb 808b 203c 31df 433d
000000b0: 1097 1bbc 57d4 093e ab1f ae3d 927f 7fbd
000000c0: 0629 a4bd 6165 c53d 97b3 053d 2e82 87bd
000000d0: 3b68 0bbe ff9c cd3b 5a38 133d 7e70 c43d
000000e0: 72fc 1a3d 6114 afbb a2f8 003e 2cc1 f63c
000000f0: f2b4 d93c 0072 0bbd 5b28 033e 63dd 183d
00000100: 0d65 c4bc 78c8 113d 00c5 9dbd e256 06be
00000110: c24d 0a3e 7b99 433d 5b36 cc3c 8fa8 a2bd
00000120: d1c9 0d3e 36e9 99bc 962d 1f3d 30a6 89bd
00000130: 7180 87bc f08a 083d be4c 80bd fb90 b7ba
00000140: 0592 c0bd a0cf 40bd f436 ecbd 493a e83d
00000150: 28fe 083d 6aae f13c 0b4b 883d 7d1d 003e
00000160: 0fa2 c83d 9249 883d 51b7 563c b00c 683d
00000170: e591 3a3d ef33 803d b9c2 babd e86e dbbd
00000180: 1db2 e5bd fe4d be3d a7f4 f13d 52ab cd3d
00000190: 49a7 033d d0cf 793c 2a83 20bd 6e30 e13d
000001a0: 99fb 9a3d 1113 533c 04c6 e1bd df32 c73d
000001b0: b3ad aebd 6fcb 5abd 6df9 dd3d c579 83bd
000001c0: bf1a 833d f37c 943d 3b1d 57bd 9192 e9bd
000001d0: 32cd ccbc 22c2 cebd 9563 debd fbf5 0b3e
000001e0: 441e 1dbd 3a73 eabc 5fd7 853d bf07 a7bc
000001f0: 4b09 6dbc 20f2 a3bd 3a2c eabc 14a5 b2bd
00000200: 6779 943d 411b e7bd e682 273d ad65 ffbd
00000210: c719 c83d b1d8 863d 969c d83c f134 8a3b
00000220: 64d8 5a3d d5a7 ec3d 8bce c3bd 5b82 853d
00000230: 6e30 f73a 5745 40bd b592 da3d a118 f63c
00000240: 3390 f1bd d934 3bbd 2728 683d 80a3 a6bd
00000250: 7bcc aebd 786e e3bd 9fd1 5b3d 071c 12bd
00000260: dc4b b3bd cd4d 913d 8715 933d 653d aa3d
00000270: 607c 46bc c7e6 b3bd 5d7b 8c3c 9760 183a
00000280: 607f bd3d afe6 583d 2ccf 89bd 2056 8e3d
00000290: d14a f33c e5e2 41bd f6d6 bdbc fcbf 29bd
000002a0: 2753 df3d f912 6c3d a531 cebc e01c 003e
000002b0: b237 7b3d 331f c23d b1e2 a2bc d2e0 2abc
000002c0: 7172 09be 53dc a1bd 9028 8b3d 8749 09bd
000002d0: cb2f 5b3d 5d12 adbd 9110 bc3d 2d49 f63d
000002e0: eb62 abbd 262f f03d c063 d53d f39a 1cbd
000002f0: be82 6a3d be59 d5bd 6213 11bc d31b 123c
00000300: e6bd 013e 58b9 ef3d 1987 c5bd bafc 5b3c
00000310: 84f5 c4bd f309 f03c 2279 cdbd 4166 a83c
00000320: befe 133d b04b 573d 0fac 3a3d b719 d53d
00000330: 1916 643c 86a8 6a3d 668e 203d 1112 9fbd
00000340: aaeb bbbd 7aa4 823c de53 8ebc 0704 3e3c
00000350: 73b5 3fbd 9890 ab3c bb70 c9bd c7e6 cdbc
00000360: f4e7 c3bc 32af 0a3e 5dc3 3e3d 55d6 b73b
00000370: d501 59bd db37 aebd f508 e5bd da6f 5ebd
00000380: 6f1f 00be c16f 9f3d adb1 e33d 5b3a 35bd
00000390: 4042 10bd cb08 ae3d 8b58 89bd 95f5 5b3d
000003a0: 7ee4 aebd 12cc d53d 0b77 1dbd ab01 0c3d
000003b0: 6559 e1bd 5786 913c bc61 0fbd 7c34 a8bd
000003c0: b252 dbbd ee31 8ebd 8052 b73d 7880 36bd
000003d0: f4a3 32bc a357 ef3d 4dbf 893d 85c6 da3d
000003e0: 8cad db3d 4397 8ebb 4074 2e3c 5c44 ed3d
000003f0: 8aaa 97bd d53e 86bc 70b9 d0bb c3ce 9b3c

lstm.bias_ih_l1 f4 [256]
-0.007986132 0.0137557415 0.053490873 -0.13002789 -0.096521206 0.029559767 0.075859666 -0.09833806
-0.041055948 -0.07249267 0.10939674 0.03889939 -0.0107699465 0.051601004 -0.049003426 0.044987034
-0.043934252 0.10015748 0.06783883 0.12853883 0.10817918 0.025872717 0.07130877 0.0914722
-0.07076794 -0.012839028 -0.021324132 -0.09383086 -0.08685552 0.099501364 -0.08800189 0.02175259
0.03989244 0.11319805 -0.0774118 -0.034559403 0.040666897 -0.109299675 0.0687331 -0.023701647
-0.11401793 -0.061637826 0.008674422 -0.09907713 0.04188844 -0.037025202 0.04028648 0.03381565
0.036668595 -0.098422036 0.033075683 -0.013769273 -0.05827729 0.05218641 0.056335047 -0.09252344
0.12756558 0.022994509 0.03447624 0.08310648 -0.0362123 0.013710694 -0.105386354 0.10185294
-0.029883621 -0.009547049 0.0024466638 0.0024997196 -0.043527327 0.015493817 0.095192894 0.07243675
-0.11206949 -0.13852121 -0.037787613 -0.09789788 -0.07691359 -0.059245776 0.023643743 -0.051267397
0.04532349 -0.019721705 -0.0040170485 0.016318375 0.028155364 0.02039286 -0.026993986 0.11069098
0.052922677 0.063043356 -0.09093504 -0.055011403 0.023986993 0.10735934 0.04899252 0.062294416
-0.014022447 0.11178766 -0.06928131 0.13216724 0.04762159 -0.058118846 0.12111729 0.03246268
0.055167608 0.11422257 -0.064337865 -0.07700106 0.07486894 -0.013951284 -0.0797744 0.018285569
-0.1016276 0.11219435 -0.040670227 -0.08199677 0.047070958 0.1172473 0.019075824 0.09662339
-0.01615035 -0.07490363 0.06292571 -0.03717638 -0.05124441 -0.13719325 0.021515608 -0.07085063
-0.0005209737 -0.004589284 -0.078512274 0.09768375 0.095350794 -0.008900898 -0.110588096 0.015089234
-0.024695983 -0.085600354 0.009669927 0.08622433 0.04206287 0.04403803 0.053248614 0.09671792
-0.023729987 0.07256628 -0.09015703 0.08330185 0.022856189 -0.13112892 0.011702114 -0.08435224
0.12931491 -0.12840927 -0.03912232 0.096924 0.019172154 0.024665043 0.018552525 0.052233204
0.025065871 -0.0022424073 0.13827571 0.056630433 0.10916754 0.041954044 -0.016553247 0.02806332
0.0060170535 0.03019803 0.12847944 0.049098484 -0.102585435 0.044370368 0.04245622 0.03216437
-0.048701327 0.07807675 -0.07027576 -0.09295977 -0.10906334 -0.022455547 0.0013483427 -0.012008489
0.089343 0.038286064 -0.11267733 -0.039794765 0.083742045 0.10076684 -0.10769917 0.092838295
-0.051267914 0.059244722 0.042803 -0.02603071 -0.082482554 -0.09759873 0.10168869 0.054151412
-0.09711049 -0.047496416 0.115748264 -0.0789655 0.10511825 0.044442616 0.09034734 -0.10860402
0.124107994 0.04744238 -0.058527622 0.014073926 -0.018847508 0.040531717 -0.09589097 -0.016151773
-0.099222146 0.13008012 -0.11109453 -0.08315785 0.11099989 0.09560768 -0.004090728 -0.030131962
-0.07533083 0.015617908 0.114124805 0.12570162 0.10720603 -0.048450686 -0.007225688 -0.062156063
-0.0500017 0.1159925 -0.05133819 0.02086527 0.1099272 0.12232728 -0.066452816 -0.038933195
-0.10021919 -0.07880373 0.113810875 0.00069715554 -0.121418595 0.09827022 -0.08970396 -0.10849643
-0.06292693 -0.010090566 0.006734319 -0.008839381 -0.11966245 0.08688279 -0.0025732382 0.03714009
00000000: 44d8 02bc c35f 613c 3f19 5b3d 0826 05be
00000010: e9ac c5bd 5327 f23c 505c 9b3d 7765 c9bd
00000020: 482a 28bd 0977 94bd 660b e03d f754 1f3d
00000030: 6e74 30bc 935b 533d d1b7 48bd 5344 383d
00000040: 67f4 33bd 5d1f cd3d 16ef 8a3d af9f 033e
00000050: 0c8d dd3d 05f3 d33c 550a 923d c755 bb3d
00000060: c8ee 90bd c95a 52bc f2af aebc 652a c0bd
00000070: 4fe1 b1bd 5fc7 cb3d 563a b4bd 7d32 b23c
00000080: 4166 233d 61d4 e73d 148a 9ebd 298e 0dbd
00000090: 5592 263d 82d8 dfbd f1c3 8c3d f529 c2bc
000000a0: 3c82 e9bd f277 7cbd 2a1f 0e3c f3e8 cabd
000000b0: 3693 2b3d bda7 17bd 7003 253d 4782 0a3d
000000c0: cf31 163d 7e91 c9bd 5e7a 073d 8498 61bc
000000d0: 2bb4 6ebd 6bc1 553d 94bf 663d ee7c bdbd
000000e0: 8da0 023e fb5e bc3c f536 0d3d bb33 aa3d
000000f0: 5953 14bd d2a2 603c cdd4 d7bd 4698 d03d
00000100: 7fce f4bc 3a6b 1cbc 3558 203b 56d2 233b
00000110: b649 32bd c7d9 7d3c 7ef4 c23d b859 943d
00000120: b084 e5bd 81d8 0dbe 2fc7 1abd af7e c8bd
00000130: df84 9dbd b3ab 72bd 86b0 c13c c3fd 51bd
00000140: 20a5 393d 6a8f a1bc 72a1 83bb 1dae 853c
00000150: 14a6 e63c ed0e a73c 7e22 ddbc f4b1 e23d
00000160: 73c5 583d e01c 813d 263c babd a353 61bd
00000170: 5f80 c43c 37df db3d 61ac 483d 6e28 7f3d
00000180: 68be 65bc eef0 e43d 5ce3 8dbd d956 073e
00000190: db0e 433d 070e 6ebd 570c f83d 96f7 043d
000001a0: 6ef7 613d 86ed e93d 92c3 83bd bbb2 9dbd
000001b0: e354 993d ed93 64bc c360 a3bd 9ecb 953c
000001c0: 2222 d0bd 27c6 e53d d395 26bd eced a7bd
000001d0: 7acd 403d 5a1f f03d e744 9c3c 7ce2 c53d
000001e0: bd4d 84bc 1367 99bd 32df 803d 4346 18bd
000001f0: a9e5 51bd 637c 0cbe 8041 b03c 231a 91bd
00000200: f491 08ba b461 96bb 0bcb a0bd 6b0e c83d
00000210: 4747 c33d 12d5 11bc 037c e2bd d638 773c
00000220: 3b4f cabc 3d4f afbd 9d6e 1e3c 6296 b03d
00000230: 1e4a 2c3d 3961 343d 381b 5a3d 0b14 c63d
00000240: 6465 c2bc a19d 943d 40a4 b8bd 299a aa3d
00000250: e73c bb3c a946 06be 39ba 3f3c dec0 acbd
00000260: 216b 043e b87d 03be ba3e 20bd 1780 c63d
00000270: ec0e 9d3c 580e ca3c 77fb 973c 7cf2 553d
00000280: f156 cd3c 5af5 12bb 2698 0d3e 50f5 673d
00000290: 3b93 df3d 01d8 2b3d ad9a 87bc 0ce5 e53c
000002a0: b42a c53b dc61 f73c 1d90 033e 7e1b 493d
000002b0: 5018 d2bd b4bd 353d 93e6 2d3d c9be 033d
000002c0: 0b7b 47bd b4e6 9f3d bdec 8fbd b161 bebd
000002d0: 9a5c dfbd b2f4 b7bc e0ba b03a 41bf 44bc
000002e0: 76f9 b63d d9d1 1c3d 5fc3 e6bd d6ff 22bd
000002f0: f380 ab3d d85e ce3d 6291 dcbd 0122 be3d
00000300: 4efe 51bd 98aa 723d 3352 2f3d 5b3e d5bc
00000310: 9dec a8bd d8e1 c7bd 2942 d03d dfcd 5d3d
00000320: dde1 c6bd 9a8b 42bd 6d0d ed3d aab8 a1bd
00000330: 3d48 d73d 7609 363d 0708 b93d c96b debd
00000340: 552c fe3d f152 423d a9ba 6fbd 5396 663c
00000350: 1766 9abc 9604 263d 7c62 c4bd b950 84bc
00000360: fb34 cbbd b933 053e 8785 e3bd aa4e aabd
00000370: e953 e33d f6cd c33d 830b 86bb 4ed7 f6bc
00000380: 0d47 9abd 41e2 7f3c 44ba e93d edb7 003e
00000390: d68e db3d 3a74 46bd 77c5 ecbb 5b97 7ebd
000003a0: 95ce 4cbd 7a8d ed3d fe47 52bd a5ed aa3c
000003b0: 8321 e13d ba86 fa3d 6a18 88bd 6a78 1fbd
000003c0: b83f cdbd da63 a1bd ad15 e93d 51c1 363a
000003d0: 50aa f8bd e641 c93d b6b6 b7bd 6033 debd
000003e0: d6df 80bd e752 25bc 90ab dc3b 0dd3 10bc
000003f0: 9611 f5bd 9bef b13d c6a3 28bb 3520 183d
